Celsius_to_Fahrenheit/app/src/main/assets/degree.tflite (tflite, 1700 bytes, 7 tensors)

dense_4/MatMul_bias f4 [4]
000000 12 a8 4b 3f 4f 33 85 40 5a 7a f1 bf 24 ab 33 40
       0.7955333 4.1625133 -1.8865464 2.8073206

dense_4/kernel/transpose f4 [4, 1]
000000 69 68 29 3d 07 e6 95 3f 96 3a 1e bf 59 f9 68 3e
       0.04135934 1.1710824 -0.61808145 0.22751369

dense_5/MatMul_bias f4 [4]
000000 3d 1f 5e c0 a3 21 85 c0 04 a0 0a 40 cc d2 35 3f
       -3.4706566 -4.160356 2.1660166 0.71024776

dense_5/kernel/transpose f4 [4, 4]
000000 ea f1 4a 3e 97 1f 85 3e d6 f7 eb be 53 a2 86 bf
       0.19818845 0.26000664 -0.4608752 -1.0518287
000010 c3 c0 fe be 3c ff b2 bf 99 c6 85 3f be 8f f3 3e
       -0.4975644 -1.3984141 1.0451232 0.47570604
000020 78 b6 f7 3d d9 00 82 bf 1f f0 9f 3e 08 7a 15 3f
       0.1209535 -1.0156509 0.31237885 0.5838933
000030 99 2f 95 be 75 49 06 bf d2 6a a1 3f 6c ab c7 3e
       -0.29137877 -0.52455837 1.2610724 0.38997972

dense_6/MatMul_bias f4 [3]
000000 8d 69 51 c0 d1 08 c0 bf cd 0e 8e c0
       -3.2720673 -1.500269 -4.4393067

dense_6/kernel/transpose f4 [3, 4]
000000 1a fa c8 3e 1a 5f cd 3f a6 27 98 bd a1 58 cf bd
       0.39253312 1.6044648 -0.07429437 -0.101243265
000010 f7 68 18 3e 63 cf 8e 3f cf f1 d3 bd 87 e3 1f be
       0.14883791 1.1157039 -0.10348856 -0.15614139
000020 23 b0 9f 3f 49 6c 3b 3f 31 b9 ed be 16 62 df be
       1.2475628 0.73212105 -0.46430352 -0.4362952

dense_7/kernel/transpose f4 [1, 3]
000000 75 72 09 bf 6f b2 40 bd f6 69 78 bf
       -0.5369027 -0.047045168 -0.97036684
